{"format": "graph-model", "generatedBy": "2.19.0", "convertedBy": "TensorFlow.js Converter v4.22.0", "signature": {"inputs": {"user_indices": {"name": "user_indices:0", "dtype": "DT_INT64", "tensorShape": {"dim": [{"size": "-1"}]}}}, "outputs": {"output_0": {"name": "Identity:0", "dtype": "DT_INT32", "tensorShape": {"dim": [{"size": "-1"}, {"size": "10"}]}}}}, "modelTopology": {"node": [{"name": "StatefulPartitionedCall/StatefulPartitionedCall/embedding/embedding_lookup/axis", "op": "Const", "attr": {"value": {"tensor": {"dtype": "DT_INT64", "tensorShape": {}}}, "dtype": {"type": "DT_INT64"}}}, {"name": "unknown_4", "op": "Const", "attr": {"value": {"tensor": {"dtype": "DT_FLOAT", "tensorShape": {"dim": [{"size": "271360"}, {"size": "32"}]}}}, "dtype": {"type": "DT_FLOAT"}}}, {"name": "StatefulPartitionedCall/TopKV2/k", "op": "Const", "attr": {"value": {"tensor": {"dtype": "DT_INT32", "tensorShape": {}}}, "dtype": {"type": "DT_INT32"}}}, {"name": "user_indices", "op": "Placeholder", "attr": {"shape": {"shape": {"dim": [{"size": "-1"}]}}, "dtype": {"type": "DT_INT64"}}}, {"name": "Func/StatefulPartitionedCall/StatefulPartitionedCall/input/_11", "op": "Const", "input": ["^user_indices"], "attr": {"value": {"tensor": {"dtype": "DT_FLOAT", "tensorShape": {"dim": [{"size": "278859"}, {"size": "64"}]}}}, "dtype": {"type": "DT_FLOAT"}}}, {"name": "StatefulPartitionedCall/StatefulPartitionedCall/sequential/dense/MatMul/ReadVariableOp", "op": "Const", "input": ["^user_indices"], "attr": {"value": {"tensor": {"dtype": "DT_FLOAT", "tensorShape": {"dim": [{"size": "64"}, {"size": "64"}]}}}, "dtype": {"type": "DT_FLOAT"}}}, {"name": "StatefulPartitionedCall/StatefulPartitionedCall/sequential/dense/BiasAdd/ReadVariableOp", "op": "Const", "input": ["^user_indices"], "attr": {"value": {"tensor": {"dtype": "DT_FLOAT", "tensorShape": {"dim": [{"size": "64"}]}}}, "dtype": {"type": "DT_FLOAT"}}}, {"name": "StatefulPartitionedCall/StatefulPartitionedCall/sequential/dense_1/MatMul/ReadVariableOp", "op": "Const", "input": ["^user_indices"], "attr": {"value": {"tensor": {"dtype": "DT_FLOAT", "tensorShape": {"dim": [{"size": "64"}, {"size": "32"}]}}}, "dtype": {"type": "DT_FLOAT"}}}, {"name": "StatefulPartitionedCall/StatefulPartitionedCall/sequential/dense_1/BiasAdd/ReadVariableOp", "op": "Const", "input": ["^user_indices"], "attr": {"value": {"tensor": {"dtype": "DT_FLOAT", "tensorShape": {"dim": [{"size": "32"}]}}}, "dtype": {"type": "DT_FLOAT"}}}, {"name": "StatefulPartitionedCall/StatefulPartitionedCall/embedding/embedding_lookup", "op": "GatherV2", "input": ["Func/StatefulPartitionedCall/StatefulPartitionedCall/input/_11", "user_indices", "StatefulPartitionedCall/StatefulPartitionedCall/embedding/embedding_lookup/axis"], "attr": {"Tparams": {"type": "DT_FLOAT"}, "Taxis": {"type": "DT_INT64"}, "Tindices": {"type": "DT_INT64"}, "_has_manual_control_dependencies": {"b": true}, "batch_dims": {"i": "0"}}}, {"name": "StatefulPartitionedCall/StatefulPartitionedCall/sequential/dense/Relu", "op": "_FusedMatMul", "input": ["StatefulPartitionedCall/StatefulPartitionedCall/embedding/embedding_lookup", "StatefulPartitionedCall/StatefulPartitionedCall/sequential/dense/MatMul/ReadVariableOp", "StatefulPartitionedCall/StatefulPartitionedCall/sequential/dense/BiasAdd/ReadVariableOp"], "device": "/device:CPU:0", "attr": {"transpose_a": {"b": false}, "transpose_b": {"b": false}, "fused_ops": {"list": {"s": ["Qmlhc0FkZA==", "UmVsdQ=="]}}, "num_args": {"i": "1"}, "leakyrelu_alpha": {"f": 0.2}, "epsilon": {"f": 0.0}, "T": {"type": "DT_FLOAT"}}}, {"name": "StatefulPartitionedCall/StatefulPartitionedCall/sequential/dense_1/BiasAdd", "op": "_FusedMatMul", "input": ["StatefulPartitionedCall/StatefulPartitionedCall/sequential/dense/Relu", "StatefulPartitionedCall/StatefulPartitionedCall/sequential/dense_1/MatMul/ReadVariableOp", "StatefulPartitionedCall/StatefulPartitionedCall/sequential/dense_1/BiasAdd/ReadVariableOp"], "device": "/device:CPU:0", "attr": {"transpose_a": {"b": false}, "transpose_b": {"b": false}, "fused_ops": {"list": {"s": ["Qmlhc0FkZA=="]}}, "leakyrelu_alpha": {"f": 0.2}, "num_args": {"i": "1"}, "epsilon": {"f": 0.0}, "T": {"type": "DT_FLOAT"}}}, {"name": "StatefulPartitionedCall/MatMul", "op": "MatMul", "input": ["StatefulPartitionedCall/StatefulPartitionedCall/sequential/dense_1/BiasAdd", "unknown_4"], "device": "/device:CPU:0", "attr": {"grad_a": {"b": false}, "transpose_a": {"b": false}, "T": {"type": "DT_FLOAT"}, "grad_b": {"b": false}, "transpose_b": {"b": true}}}, {"name": "StatefulPartitionedCall/TopKV2", "op": "TopKV2", "input": ["StatefulPartitionedCall/MatMul", "StatefulPartitionedCall/TopKV2/k"], "attr": {"Tk": {"type": "DT_INT32"}, "sorted": {"b": true}, "T": {"type": "DT_FLOAT"}, "index_type": {"type": "DT_INT32"}}}, {"name": "Identity", "op": "Identity", "input": ["StatefulPartitionedCall/TopKV2:1"], "attr": {"T": {"type": "DT_INT32"}}}], "library": {}, "versions": {"producer": 2129}}, "weightsManifest": [{"paths": ["group1-shard1of7.bin", "group1-shard2of7.bin", "group1-shard3of7.bin", "group1-shard4of7.bin", "group1-shard5of7.bin", "group1-shard6of7.bin", "group1-shard7of7.bin"], "weights": [{"name": "StatefulPartitionedCall/StatefulPartitionedCall/embedding/embedding_lookup/axis", "shape": [], "dtype": "int32"}, {"name": "unknown_4", "shape": [271360, 32], "dtype": "float32", "quantization": {"dtype": "uint8", "min": -11.311524761424346, "scale": 0.08196757073495903, "original_dtype": "float32"}}, {"name": "StatefulPartitionedCall/TopKV2/k", "shape": [], "dtype": "int32"}, {"name": "Func/StatefulPartitionedCall/StatefulPartitionedCall/input/_11", "shape": [278859, 64], "dtype": "float32", "quantization": {"dtype": "uint8", "min": -3.3493040402730307, "scale": 0.025763877232869468, "original_dtype": "float32"}}, {"name": "StatefulPartitionedCall/StatefulPartitionedCall/sequential/dense/MatMul/ReadVariableOp", "shape": [64, 64], "dtype": "float32", "quantization": {"dtype": "uint8", "min": -0.9874539651122748, "scale": 0.008368253941629447, "original_dtype": "float32"}}, {"name": "StatefulPartitionedCall/StatefulPartitionedCall/sequential/dense/BiasAdd/ReadVariableOp", "shape": [64], "dtype": "float32", "quantization": {"dtype": "uint8", "min": -2.3746676445007324, "scale": 0.008696319601115058, "original_dtype": "float32"}}, {"name": "StatefulPartitionedCall/StatefulPartitionedCall/sequential/dense_1/MatMul/ReadVariableOp", "shape": [64, 32], "dtype": "float32", "quantization": {"dtype": "uint8", "min": -1.2850031534830728, "scale": 0.010798345827588847, "original_dtype": "float32"}}, {"name": "StatefulPartitionedCall/StatefulPartitionedCall/sequential/dense_1/BiasAdd/ReadVariableOp", "shape": [32], "dtype": "float32", "quantization": {"dtype": "uint8", "min": -0.42927163769217097, "scale": 0.003327687113892798, "original_dtype": "float32"}}]}]}